Navigation_Controller/checkpoint.pth (torch_old, 28405 bytes, 6 tensors)

fc1.weight f4 [64, 37]
00000000: 3b9a c3bd a105 143e 44c2 11bd e354 8fbd
00000010: bc7d 2dbe b993 78bd 8842 d03c 07ba e33d
00000020: 47b1 ab3d 0f64 b23d 5198 453e d8b2 43be
00000030: a552 cdbd 0bbf a7be 4655 8ebf 8a47 a33d
00000040: 4b4b 5dbc 5b88 ed3d 9318 92bd bdf4 92be
00000050: 5a7a c8bc cbc8 ad3d a7b4 a63d 4815 083e
00000060: 0a33 4c3b 094e 09be a8ed 35bc 82eb 6b3d
00000070: ee6d 01bd 2129 4cbd f7bd d3bd f031 dbbc
00000080: 4187 743d b0ea d4bc 0159 03be 86cd 1f3c
00000090: 94da 1f3b 296c 4e3e c297 723d 36a7 f73c
000000a0: 90d7 bc3d cd71 debb d386 373e 87f1 e4be
000000b0: 9990 c2bd 87e9 c2be 82c1 d0be 27e2 fd3c
000000c0: b5ff 783a 484f cc3c bfb1 133d 7c9d 283e
000000d0: 9687 683e 9856 d9bd 3680 3ebd 00dc a6bd
000000e0: a2f7 8abe 2a6a fcbd b19c 14be c846 0e3b
000000f0: a7e1 a5bd 14f6 cd3d 5bc9 09be 6dee d73d
00000100: 713a aa3d e884 203d 671c dcbd 6e6d 513d
00000110: 536e b43d 02c5 943d 8f24 863d 22e6 423d
00000120: 5b05 993c a68d 80bb af4e 6d3e ab3a 123e
00000130: 4420 b2bd 2356 00bc 5c13 e0be 888c 64be
00000140: 13f8 b3bc 8565 283e d08b f33d b599 4bbe
00000150: b5a3 8fbc 3311 173e 96ed 43bd c8fe 12be
00000160: 2576 253e 8906 af3d 490f e1bc 664d b03d
00000170: d3e8 54be 28ca 5bbe 15d9 1cbe d24d d03d
00000180: b8eb 4bbc ee5e f6bc d1e9 20be 484c aebd
00000190: 8815 243e bea4 c93d 86ae 223e 73f2 9e3c
000001a0: fde8 17bf 7e00 f23d a554 9a3d d1a0 1cbe
000001b0: b318 06be 96af 193d fb3d d7bc e81f 45bd
000001c0: c3c3 1f3e 5cb9 e33d 322f a23d 740e 05be
000001d0: 5ee6 95bc 55d7 e53d 6ce7 853d b569 cb3d
000001e0: 9945 0d3e 60c7 a93c 5bde 2e3c 1d10 653d
000001f0: edfd 70bd 075e 51bd d89a bfbd 6de1 0cbe
00000200: 0f87 adbc 6f3c 41bd cba3 8dbd c566 ac3e
00000210: 30c8 30bf cfeb cfbe 404b a3be 6e06 bfbf
00000220: d298 50be 2887 f6bc 5843 233e 2a62 563e
00000230: 938f db3e 483d 7e3d ff6e 163e 7d12 653c
00000240: d229 b3bd 0b53 74be 92a0 17bc a4a0 003c
00000250: 1e93 e5bd 0681 3cbe 883b 7ebd 970b ebbd
00000260: 1d00 073d 1ab5 b13e 39e8 1dbf e02c 13bf
00000270: c466 e3be c8c6 e5bf 158d 84bd 3d7c 823d
00000280: cee1 bdbd 3ff7 b7bc 2599 b53c 6f86 a7bd
00000290: c11b 56bd 38e5 b0bc 4722 1a3d 1151 2c3e
000002a0: 9c87 b8bd 2ef9 013d d201 a23d ab01 0d3c
000002b0: 5789 a43d 3cac a2bd 881d 723d ee8a 023e
000002c0: cff9 173e 8324 853e 8399 cc3d fc75 5c3d
000002d0: acd8 693d 98ee 5f3a 8f7b 12bd f556 c0bb
000002e0: 9979 b53b 7003 0c3e d6ef aebc 2a54 f5bd
000002f0: d987 9a3c 4037 a5bb 315d 813e de74 ca3e
00000300: adf0 08bf bf27 15be 9db9 3bbf 1b88 4c3d
00000310: 0369 0ebe f81e eb3a f345 0c3d b07b 0c3c
00000320: edfb 84bc a344 7b3c 1a3a a53d 487a 3a3c
00000330: 6634 84bd 7679 e73b f4b5 433e 4c00 2c3e
00000340: 2785 d33d 0f01 773e 6746 34bc 22c5 37bc
00000350: 6ea4 593d da5d 1e3d 5f72 3cbe 5e50 d83d
00000360: 51c7 e2bd 27b1 f4bc 6043 0cbc d875 2cbe
00000370: a96f af3c 1608 9b3c 40d5 ce3d f24e 16be
00000380: a1e1 943d 6efa b6be d660 39bf 689f 01bd
00000390: 4a73 0ebe 483a fcbd c1bd 093e 611f 863e
000003a0: fef4 d6bd 1428 973d a01e 893e b61e 8fbe
000003b0: a03b 133e 85a1 733c a87c 1cbe 9918 c2bc
000003c0: 3287 903c 6942 873e 5dd7 06bd 5843 703d
000003d0: 7d5e 04be 06fe e4bc 8c52 303d 9455 3bbe
000003e0: 1f7e d8bb 1c38 9cbd 6f45 acbd 6afd 1b3d
000003f0: 5fe2 b63b a494 3e3d 5511 79be ebc2 9a3d
-0.095509015 0.14455272 -0.035585657 -0.06998613 -0.16942495 -0.060687754 0.02542235 0.11119466
0.08383422 0.08710491 0.19296385 -0.19111192 -0.10025529 -0.32762942 -1.1119773 0.07972629
-0.013506721 0.11598273 -0.071335934 -0.28702345 -0.024472404 0.08485564 0.081399255 0.13289368
0.0031158351 -0.13408674 -0.011104025 0.057597645 -0.031598978 -0.04984391 -0.10338967 -0.02675721
0.0596993 -0.025990814 -0.12826921 0.00975359 0.0024391757 0.20158447 0.05922676 0.0302311
0.09220803 -0.0067884685 0.17922525 -0.4471552 -0.09500236 -0.38068792 -0.40772635 0.030991627
0.00094985525 0.024940148 0.036058184 0.16466326 0.22707972 -0.106122196 -0.04650899 -0.081474304
-0.27142054 -0.12324937 -0.14512898 0.002170967 -0.080996804 0.10056701 -0.13455717 0.10543523
0.08311928 0.03918925 -0.10747605 0.05112975 0.08810105 0.07264139 0.06549942 0.047582753
0.018679311 -0.003923136 0.23174547 0.14280193 -0.086975604 -0.007833037 -0.4376477 -0.22319233
-0.021968877 0.16444977 0.118919015 -0.19882853 -0.017534116 0.14752655 -0.047834 -0.14355004
0.1615835 0.08546168 -0.027473109 0.086085126 -0.2079194 -0.21463835 -0.15317185 0.10171093
-0.012446336 -0.030074563 -0.15714194 -0.08510643 0.16023839 0.09845875 0.15886888 0.019402718
-0.59339887 0.118165 0.07535676 -0.15295722 -0.1309536 0.037520967 -0.026274672 -0.04812613
0.15602021 0.11119339 0.07919158 -0.12993795 -0.018298324 0.11222712 0.06538281 0.099322714
0.1379608 0.020724952 0.010673131 0.05592357 -0.058835912 -0.051115062 -0.09355706 -0.13757868
-0.021182565 -0.047176775 -0.06916007 0.33672157 -0.6905546 -0.40609595 -0.3189335 -1.4923837
-0.20370796 -0.030093744 0.15943658 0.20935884 0.42882976 0.06207016 0.14690779 0.013981459
-0.08748211 -0.23859803 -0.009254592 0.0078508 -0.11209701 -0.18408594 -0.062068492 -0.1147682
0.032959092 0.34708482 -0.6168247 -0.5749035 -0.4441434 -1.7951288 -0.06472222 0.06371353
-0.092715845 -0.022456763 0.022167752 -0.08179938 -0.052272562 -0.021593675 0.037630346 0.168278
-0.090102404 0.031731777 0.079105034 0.008606355 0.08034008 -0.07943007 0.059110194 0.1274831
0.14841388 0.2600442 0.099902175 0.053823456 0.0570914 0.0008542328 -0.035762366 -0.005869741
0.005538177 0.13673186 -0.021354597 -0.11978944 0.018863605 -0.0050419867 0.25266412 0.39542288
-0.5349224 -0.14565943 -0.733301 0.049934488 -0.13907246 0.0017938307 0.034246396 0.008574411
-0.016233409 0.0153361885 0.080677226 0.011381693 -0.06455307 0.00706404 0.19112378 0.16796988
0.10328131 0.24121498 -0.011003113 -0.011216434 0.053135328 0.038663723 -0.18403004 0.10562204
-0.11073173 -0.02986963 -0.008560985 -0.16841829 0.021415548 0.018924754 0.10099268 -0.14678553
0.07269598 -0.35737938 -0.72413385 -0.031646162 -0.13911167 -0.12315804 0.13451292 0.26195815
-0.10495947 0.07380691 0.26781178 -0.27953118 0.14378214 0.014870052 -0.15281928 -0.02369337
0.017642591 0.26417854 -0.03292023 0.058657974 -0.1292667 -0.027953159 0.043047473 -0.18294364
-0.0066068317 -0.076278895 -0.08411681 0.03808347 0.0055811848 0.046528473 -0.24323018 0.07556709

fc1.bias f4 [64]
00000000: 19f5 ce3d 7482 1cbd d581 d1bd bc89 a73c
00000010: cc09 5f3e 61e4 0abc 0e62 96bd 12cc fe3d
00000020: ddf5 963c b639 52be 2bc0 2f3e b3da 263e
00000030: 27ec 973d ac41 973d 2867 763d 79a2 00bd
00000040: 9752 ff3c a85c 9e3d ba37 2c3b eba7 40be
00000050: 7fa0 35be 77be a83d 25bf 3abd ffe3 9bbd
00000060: d578 bcbd 29d4 613e 4691 803b 6068 e8bd
00000070: a79f 313e f00a c83d c16c 2a3d b4f6 e3bd
00000080: 680c 423e 5cd7 debc 286e d5bd 19de 323c
00000090: fd12 08bd 59d8 543d ec2b 40bb 846b 38be
000000a0: c6e7 d6bd 6b08 54bd c46e c3bd a05b 353e
000000b0: 97f4 f53b 03e1 3f3c fa2b ce3c 29b2 05be
000000c0: 481e 11be aa4e df3d ae01 11be 75a2 133d
000000d0: 46e4 36bd 747d f6bd fae3 24be 1ec4 a5bc
000000e0: e72d 193e 2866 4bbd f760 b3bd 1478 dbbd
000000f0: 5659 c13d cc7b 823d 8e82 593c 0f26 163d
0.101053424 -0.038210347 -0.102298416 0.020451419 0.21781081 -0.008477301 -0.07342921 0.12441267
0.018427784 -0.20529827 0.1716315 0.16294365 0.07418089 0.07385573 0.06015697 -0.031404946
0.031167312 0.077325165 0.0026278333 -0.18814056 -0.17737006 0.08239453 -0.045592446 -0.07611846
-0.092027344 0.22053589 0.003923568 -0.11348033 0.17346059 0.09767711 0.041607622 -0.11131039
0.18950045 -0.0272023 -0.10421401 0.01091721 -0.033221234 0.051964138 -0.0029323054 -0.18009764
-0.10493426 -0.05176584 -0.09542611 0.17710733 0.007505964 0.011711362 0.025167454 -0.13056244
-0.14171708 0.10903676 -0.14160797 0.036043603 -0.044651292 -0.12035647 -0.16102591 -0.020235118
0.14958917 -0.04965797 -0.08758729 -0.107162625 0.094408676 0.06371269 0.013275756 0.03665739

fc2.weight f4 [64, 64]
00000000: cc94 383d 94e0 ab3d 2b27 073d abe0 cfbc
00000010: e648 d0be 6996 b9bd b879 32be 541a bcbd
00000020: 1630 203d d490 82bd 7ab7 253d 3d05 8c3e
00000030: 9364 4bbe 9a9d 9f3d 059f 3dbd 2fc6 463d
00000040: a544 afbe 9384 00bf 3211 55bd 483d 9ebe
00000050: 6ded c3bd 8171 a93c 75c6 c83e cf53 d5be
00000060: 7993 973d 0d0b c43c 1783 abbc aa62 79bc
00000070: da6a bfbd 07e7 61be 6b43 78bd 8abc c23d
00000080: 7538 ca3d 89c0 7cbe dc93 44be 6c10 72bd
00000090: 119b 87bd de1e aa3d 44bd 203e ff2c 7dbe
000000a0: f477 a3bb cf41 2b3e 0d93 76bd 4f82 823d
000000b0: e93f c73d c4a9 61be 559b 64bd c530 033f
000000c0: 42ef 51be fdc6 75be 2e87 18be 6d84 39be
000000d0: f7c7 26be 6f3c 4f3e 1824 183d 1c2d 0fbe
000000e0: 2e98 44be fc9b dabd 3a66 92be 11a8 00bf
000000f0: 0637 f83d e177 7f3e 4292 c8be 3758 143b
00000100: a671 2b3d fd5a 203e 70d9 533d d8e7 ad3e
00000110: 7521 9a3e 3ef2 863d afbc 6ebe 6ce2 c83d
00000120: 595a b5bd 3444 32bd 57a4 c03c a854 9c3d
00000130: d1ea 1cbe be29 c83d 5c5b 94bd 7572 993d
00000140: 42eb c83d 94b8 383e 6581 12be 2252 033d
00000150: 2589 313d b719 f2bd 8522 823d f817 97bd
00000160: 822c 813d 5fe3 f53d 9714 4fbc 8140 0bbe
00000170: 8e58 7c3e a5a7 40be a240 dbbd 405c bbbd
00000180: a2de 0bbe 4f34 e43d e0b4 3e3e 4823 95bc
00000190: 23b5 4bbd 2544 9e3c 50bd 5c3e 06d9 9abe
000001a0: a3b0 b8bc 9aee 723d eacd 90ba 5fd1 ea3c
000001b0: 7a83 ab3c 488f 9fbd c05e e0bd 1771 8abe
000001c0: 5622 64be f0b3 8abb c9ed 80be ae14 783d
000001d0: 18c0 333d 636c 003c eb74 10bd dec7 0a3e
000001e0: 0db2 c83c 7b06 4ebd 7c9f e6bd abea 41bd
000001f0: b4c6 c0bd 14b7 283d 8010 abbd 0f73 f1bb
00000200: ec32 56be 3810 e83c 7991 223e cf4d 4e3d
00000210: 4110 99be a8bf 37be d9b1 20bd 2f64 87be
00000220: 9b16 cd3d 7976 75be 10d6 a2bd 9014 983c
00000230: cc8f 8cbe 4d46 303c 3e3b 213d eece 153e
00000240: 918c 62be 945d bcbb 27f8 823c de81 0fbe
00000250: 95d4 03be 98b0 ac3e 2cae 5b3e d002 833e
00000260: dd65 363c 4f28 a13c 42d1 023e 55c9 423d
00000270: b488 a63c afbc 4fbe f454 283e 76ab 8cbd
00000280: f65b aa3d a58e bdbe d70e efbe dfdf 02be
00000290: 994c 1b3d ff80 bd3e 94cc 1ebd 08a5 1abe
000002a0: a8af 35bc f832 313e 1052 d0bd f871 65bd
000002b0: 9e28 49be 3d57 6dbd 82d1 b5bd eeac ac3e
000002c0: cacc fa3d b549 3a3e dfba 44be d12d ec3d
000002d0: 9d97 40be bc9a bd3e 4f8c 91be 0b38 20bd
000002e0: d770 8abd ae94 a9bd 5196 f1bd 3b28 63be
000002f0: ab87 3ebe cb41 d3bd bdb7 3f3e 8b9e ae3d
00000300: 27a4 373e c869 ddbd 4326 a0bd d782 b4be
00000310: feda 1abe a004 d03b 8a28 80be 5afd 0d3d
00000320: 3587 09be 85ff 263d fe2e a33d a119 89be
00000330: 424e f0bd 6020 263e 9570 153e 0edf 563d
00000340: 3158 6fbe 4ccc 533d 92d5 d33d 8118 59be
00000350: bee0 1f3d 3128 3bbe 1561 58be c68c 0ebe
00000360: 8187 d0be db96 333e 1f07 023e 1258 0b3e
00000370: 09ab b03d 05d9 a0be 5fe2 353f aff0 583e
00000380: 8b12 bfbc 4f6d a73d 646a 213e e031 053e
00000390: 6a78 c5be 8c89 b2be 5814 6dbe c744 2e3d
000003a0: 1beb 10bd ff43 2abc 88bc f03d 00b5 8ebc
000003b0: 3d8f 053e 6c95 a83d fb79 1abe c10a 71be
000003c0: 85fd 9a3b 36ac 24be 6a50 08bf bdd9 31bc
000003d0: d7bd 1e3d 9553 de3d b3d0 263d e704 b83a
000003e0: 2f6b 02be 1fa7 b03d 5cc7 78be f8fe c93d
000003f0: 96f9 76be 1bbc 6bbd 166c 18be d311 7cbe
0.04506378 0.08392444 0.032996338 -0.025375685 -0.40680617 -0.090618916 -0.17429245 -0.09184709
0.03910836 -0.0637528 0.04045818 0.27347746 -0.19862585 0.07793732 -0.04629423 0.048528846
-0.3423206 -0.5020229 -0.05201835 -0.3090613 -0.0956677 0.020684006 0.3921391 -0.41665503
0.07401175 0.02393105 -0.020936532 -0.015221277 -0.09346552 -0.22060786 -0.06061117 0.09508617
0.098740496 -0.24682821 -0.19197029 -0.059097692 -0.066213734 0.08306669 0.15697199 -0.24724196
-0.0049886648 0.16724323 -0.060198832 0.06372511 0.09728987 -0.22037417 -0.0558122 0.5124629
-0.20501426 -0.2400169 -0.14895317 -0.18116923 -0.16287218 0.20237897 0.037143797 -0.13982052
-0.19198677 -0.10674283 -0.28593618 -0.5025645 0.1211987 0.24948074 -0.39174086 0.0022635588
0.04185643 0.1565971 0.051721036 0.33965945 0.3010365 0.06589173 -0.23314165 0.098088115
-0.08855123 -0.043522075 0.023515863 0.076333344 -0.1532395 0.09773587 -0.07243988 0.07492534
0.09810497 0.18039161 -0.14307173 0.03206075 0.04334368 -0.11821311 0.0635424 -0.073776186
0.06307317 0.12006258 -0.012639186 -0.13598825 0.24643156 -0.18813951 -0.10705687 -0.09148455
-0.13659146 0.111427896 0.18623686 -0.0182053 -0.049733292 0.019319603 0.21556592 -0.302437
-0.022545164 0.05930958 -0.0011047695 0.028664289 0.020936716 -0.077910006 -0.10955572 -0.27039406
-0.22278723 -0.004232876 -0.25181416 0.060566597 0.043884367 0.007838341 -0.03526775 0.13552806
0.024498964 -0.05029915 -0.11260888 -0.047342937 -0.094128996 0.041190222 -0.083527565 -0.0073684524
-0.20917863 0.028328046 0.15875806 0.050367173 -0.29895213 -0.17944205 -0.03923211 -0.26443622
0.10014077 -0.23970975 -0.079509854 0.018564492 -0.27453458 0.0107589485 0.03936314 0.14629719
-0.22123934 -0.00574846 0.015987469 -0.14014384 -0.12874062 0.3372848 0.2145316 0.25588083
0.011132685 0.019672541 0.12775138 0.047555286 0.020328857 -0.20286821 0.16438657 -0.06868641
0.083183214 -0.37022892 -0.4669101 -0.12780713 0.037914846 0.3701248 -0.03876932 -0.15102017
-0.011089243 0.173046 -0.10171902 -0.056016892 -0.196444 -0.057944525 -0.08877851 0.33725685
0.12246092 0.1819218 -0.1921191 0.11532176 -0.18807836 0.37032115 -0.2842736 -0.039115947
-0.06759804 -0.082803115 -0.11796249 -0.22183315 -0.1860644 -0.103152834 0.18722434 0.085263334
0.17933713 -0.10811192 -0.07819798 -0.35256073 -0.15122601 0.0063482076 -0.2503093 0.034665443
-0.13430484 0.040771026 0.079679474 -0.26777366 -0.117336765 0.16223288 0.14593728 0.052458815
-0.23373486 0.051708505 0.1034347 -0.21200754 0.03903269 -0.1827705 -0.21130784 -0.13920888
-0.4072838 0.17538016 0.12698029 0.13607815 0.08626372 -0.31415573 0.7104854 0.21185564
-0.023324272 0.08175146 0.15763241 0.13007307 -0.3856843 -0.34870565 -0.23152292 0.04254606
-0.035380464 -0.010392188 0.117547095 -0.017420292 0.13042922 0.08231625 -0.15085594 -0.23539259
0.004729929 -0.16081318 -0.532477 -0.0108551355 0.038755264 0.10855786 0.040726375 0.0014039547
-0.127362 0.08625626 -0.242948 0.098630846 -0.24118647 -0.05755244 -0.14884982 -0.24616174

fc2.bias f4 [64]
00000000: a321 17bc 5c5c 043d 53d7 023c ee75 163d
00000010: 2fc7 133e fdb8 30be 5676 98bd 4308 49bd
00000020: 2541 24bd 036a c23e 2c89 623c 04b1 6b3e
00000030: 2051 673e 198e d0bb f5da bbbd df57 983d
00000040: 45b4 91bc 568c 523d d48c 1b3c ca0f 2c3e
00000050: cb81 473e fa61 ee3e eab2 2cbe c1e6 c4bd
00000060: ff1a a6bd c46d ffbd 84b7 d93d 17b8 bc3b
00000070: 78ff cd3d 9ba8 a93d b6bb f23d 2a47 643c
00000080: 664e 50bd b482 973e c15e a4bc eaad 31bd
00000090: 2e25 c7bd 131b 44bd d4cd 9b3e 8162 49bd
000000a0: 63ea 1fbd 7471 e33e f821 903e 658c 59bd
000000b0: 71f8 a13d 4863 81bd e74c 503c 3747 03be
000000c0: 8e6a 203d ec60 3dbc cdfd 87bc d1ae ac3e
000000d0: 0929 21bd 4b9a 9b3c 82b9 4f3e f38c 4bbe
000000e0: 11a5 58be bf60 0cbe baf9 2d3d 6331 15be
000000f0: ea06 483c 1f2e df3d d882 ed3d 4af9 b7bd
-0.009224328 0.032314643 0.007985908 0.03673356 0.14431451 -0.17258067 -0.07444446 -0.049080145
-0.04010119 0.37971506 0.01382665 0.23016745 0.2258954 -0.0063645956 -0.09172622 0.07438635
-0.017786155 0.051403366 0.009494025 0.16802898 0.19483106 0.46559125 -0.16865125 -0.09614325
-0.08110618 -0.12472108 0.10630706 0.00575925 0.100584924 0.08284112 0.11852209 0.013932982
-0.050856017 0.29591906 -0.020064713 -0.043378748 -0.09723888 -0.047877382 0.30430472 -0.049166206
-0.039041888 0.44422495 0.28150916 -0.053112406 0.079087146 -0.063177645 0.012713647 -0.12820135
0.03916412 -0.0115587525 -0.016600514 0.33727124 -0.039345775 0.018994471 0.2028561 -0.19877987
-0.21156718 -0.1370878 0.042474486 -0.14569621 0.01220868 0.10897469 0.11597222 -0.08983095

fc3.weight f4 [4, 64]
00000000: a94a 913e da04 013e 041c 1dbd bc78 233e
00000010: e05e 2b3e 860d 30be dc7a 233e 43db 4abe
00000020: 24cf 093f 5eff ed3d 2825 60bd 7644 813e
00000030: 29ca 153e 7959 00bd 9012 e7bb e310 fbbd
00000040: 8307 7ebd 85f7 b43e b94a a93e 5612 4c3e
00000050: dc21 0b3e 27a2 323e 7b23 1fbd aeae 78be
00000060: 1c2b f4be 3f23 1cbe a090 acbe a7fa 77be
00000070: 965b be3d 090e 8c3e 43b0 f1bd dda5 003e
00000080: 45b6 e03d 4f67 453e 5672 d23e 114b 403e
00000090: 25ba 373e fd87 493e c7e7 233e 4074 d93c
000000a0: 04fa bc3d 81c2 213e 1553 e23d 6dd1 8f3d
000000b0: 5863 523e 7419 22bd 98b7 b53d 458f 64be
000000c0: 884e 253e a5aa c93d e36e d93e 091b 763e
000000d0: 74ee 44b9 9961 2f3e 1c17 113e 6c6b 1cbe
000000e0: d61a 42be af8e 51bc c3d0 9f3d c4ae 3dbe
000000f0: 2cf4 97bd eddd 9b3e 542c 10be ba3b 19be
00000100: 4d04 6d3e 9758 a93d 5622 1a3e bef5 fc3e
00000110: 90a4 083e 4ae7 abbc 5df6 193e 8d71 9ebe
00000120: 8235 603e 0b22 013e 7df8 563e 5657 223e
00000130: 5a31 963d aeda 253e 60de a5bc f887 e2b9
00000140: 1ad6 c9bd 66f8 833e 8d5d c13e 10e5 103e
00000150: 6973 383e f9ad 643e 1c4c 7dbe 1a1e 1a3d
00000160: 4366 003e c292 07be 8c05 ab3d fd82 9e3d
00000170: 6629 df3d fcfe 8d3e 83a4 143e 79b4 2a3e
00000180: 4e43 903c 5ad1 7e3d 95bb 9c3e bfdd b03d
00000190: 201f 8f3e 1b39 783e 3c15 1e3e 56c6 273d
000001a0: 0895 b73e 6010 373e aac4 843d 5add 973e
000001b0: c70f 363e d636 bcbc 2d27 3b3e 05da 46be
000001c0: 1a11 a93e c235 de3d 4d00 b23e c392 133e
000001d0: 9164 693e 6b97 913e cdbd 173e 2f30 d1bd
000001e0: ad69 53be 7439 05bd dd14 94bd e190 64be
000001f0: d300 dcbd 2d46 323e 247e 83be 77cf 45be
00000200: 5268 593e 63a4 3d3e 6f7d 6c3e c9f7 463f
00000210: d276 943e 1ee9 f33d 79e9 0dbe 80aa 46be
00000220: e4be fc3e 8c9c fb3d 9a81 c7be 2488 543e
00000230: ad3d 2a3e 3a9f 45bd 665c 98bd 8183 883d
00000240: 7ff8 813d cbfa a73d d64f 593c f80a c8b9
00000250: 8d65 bc3d 8e91 623e e332 d1be 24e4 3a3e
00000260: 524c 97bc bdef efbd 4e2b 8b3e 46c6 24be
00000270: 18e5 263e f5a0 7f3e 4f48 21be 58c4 9ebc
00000280: f655 d9bd 95ba 193e 4646 923e a8fb 893e
00000290: 943b 3ebc dd96 ee3d 7618 333e ab44 043f
000002a0: 40b7 40be 1676 2a3e db31 2d3e 3f56 033d
000002b0: d444 093e 8ab2 293c bb34 843e 28ea d4bc
000002c0: dd5d 043f 0629 82bc 1f07 1c3e 4056 923e
000002d0: 8adc 79be af9f a5bd 873e 563e b2b6 05be
000002e0: bee7 48be d201 93bc 7505 34be 072b 90be
000002f0: dd1f dfbd 4a85 623e b516 b53c d86d 5dbe
00000300: b028 df3e a102 733e b908 89be e1f0 31be
00000310: 701a 113d 139c 7bbc 2949 c0be ab33 57be
00000320: faee b33e 7e00 4c3e 318e 523e 14ac a23d
00000330: 6d29 4d3e 9832 983d 00be 723d 7d4c b8bd
00000340: a77d e43d c507 5e3d a5e5 183f 4fcf 093e
00000350: 21ae c33c c2c8 403e 4c5a babe f9d4 cb3d
00000360: 0ebc c8bd 3e0f adbd 7091 5bbd 5a75 553e
00000370: a183 283e 192c 3abc 8fe8 7e3e e978 d63d
00000380: 011a 01be 1dd6 d83d 9e48 8c3e 4f3f 3bbc
00000390: 6b69 5f3d 84f5 273f 6d30 353e b6e1 833e
000003a0: b37b ab3e ca45 343e c954 fb3d fa7d e4be
000003b0: d571 793e e4f7 f0bd 1fad 093e e7cd cdbd
000003c0: 983d 7b3e 2a36 19bd dffd e03e 2574 893e
000003d0: a62c 11bf 6da6 de3e 514c 6c3e a259 503e
000003e0: d58b 05be 1e32 9fbd 7c57 15bf db2d 3cbe
000003f0: 3790 b0be 4584 363e e6b1 27be 1754 543e
0.28377274 0.12599507 -0.038356796 0.15964025 0.1673541 -0.17192659 0.15964836 -0.19810204
0.53831697 0.11620973 -0.054722935 0.25247544 0.14627899 -0.031335328 -0.0070517734 -0.1225908
-0.062018882 0.35345092 0.3306482 0.1992887 0.13587135 0.17444669 -0.038852196 -0.24285385
-0.4768914 -0.1524782 -0.3370409 -0.2421671 0.092948124 0.27354458 -0.118011974 0.12563272
0.10972265 0.1927769 0.41102856 0.18778636 0.17942102 0.19680782 0.16006385 0.02654469
0.09227374 0.15796854 0.11051003 0.07022367 0.20545709 -0.039575055 0.08872908 -0.22320278
0.16143239 0.09847001 0.42467412 0.2403375 -0.00018780847 0.17127074 0.14168972 -0.15275353
-0.1895555 -0.012790366 0.0780349 -0.18523699 -0.07419619 0.30442753 -0.1407941 -0.1496419
0.23146172 0.0826885 0.1505216 0.49406236 0.13344026 -0.02098431 0.15035386 -0.30946007
0.21895412 0.12610643 0.20993228 0.15853629 0.07333632 0.16196701 -0.020247638 -0.00043207384
-0.0985529 0.2577545 0.37766686 0.1414988 0.18012775 0.2233199 -0.24736065 0.037626363
0.1253901 -0.13239577 0.08350667 0.07739828 0.10896568 0.277336 0.14515881 0.16670407
0.017610218 0.062211372 0.30611864 0.08636045 0.27953434 0.24240534 0.15437788 0.040960632
0.3585589 0.1787734 0.06482823 0.29661065 0.17779456 -0.022975367 0.18276663 -0.19419105
0.3302086 0.10850097 0.34765854 0.14411454 0.2279227 0.28435835 0.14818497 -0.102142684
-0.20645781 -0.032525495 -0.07230542 -0.22320892 -0.10742345 0.17409582 -0.25682175 -0.19317423
0.21231201 0.1851974 0.23094724 0.7772184 0.28996903 0.11909698 -0.13858594 -0.19400978
0.49364388 0.12285718 -0.38966066 0.20755059 0.1662509 -0.048247553 -0.074394986 0.066657074
0.06346225 0.08202132 0.013263663 -0.00038155145 0.09199057 0.22125837 -0.40859136 0.18251091
-0.01846901 -0.11715648 0.27181476 -0.1609126 0.1629833 0.24963744 -0.1575024 -0.019380733
-0.10612099 0.15012582 0.2856924 0.2694981 -0.011610884 0.11649869 0.174898 0.5166728
-0.18819904 0.16646609 0.1691355 0.032064673 0.13405162 0.010357508 0.2582148 -0.02599056
0.51705724 -0.015888702 0.15237091 0.2858143 -0.24400535 -0.08087098 0.2092229 -0.13057974
-0.19619653 -0.017945204 -0.17580207 -0.28157827 -0.10894749 0.22121158 0.022105554 -0.21623933
0.4358573 0.23731472 -0.26764467 -0.17377044 0.035425603 -0.015357035 -0.37555817 -0.21015804
0.35143262 0.19922063 0.20562054 0.079429775 0.20035334 0.07431525 0.05926323 -0.08998964
0.11156779 0.05420663 0.5972541 0.13457988 0.023886742 0.18826583 -0.36397016 0.09952731
-0.098014936 -0.08450173 -0.053605497 0.20845547 0.16456462 -0.011363053 0.24893402 0.104722805
-0.12607576 0.10587714 0.27399153 -0.011428668 0.054543894 0.65609 0.17694254 0.2575814
0.33492813 0.17604747 0.12272031 -0.44627362 0.2435983 -0.117660314 0.13444947 -0.100490384
0.24535215 -0.03740517 0.43943688 0.26846424 -0.56708753 0.43486348 0.23075987 0.20346692
-0.13041623 -0.07773231 -0.58336616 -0.18376867 -0.34485027 0.17823894 -0.16376457 0.20735203

fc3.bias f4 [4]
00000000: d760 863e d5f3 8c3e fd5c 0b3e 647c 143e
0.26245758 0.2752978 0.13609691 0.14500576
